best_audio_ann.pth (torch, 190669 bytes, 14 tensors)

layer1.weight f4 [256, 40]
-0.066437334 -0.251441 0.40297732 0.02605607 -0.06326512 -0.20426153 -0.053645153 0.028110854
0.065457664 -0.030854039 0.1398387 0.15361021 0.019742887 0.016376426 0.1341489 0.09893724
-0.09295725 -0.2228482 -0.18746848 -0.2087553 -0.04868616 -0.09577078 0.14869933 0.028131254
-0.08060791 -0.050815172 0.031959742 -0.27914244 -0.107880846 -0.006089803 -0.0100381 0.16374251
0.06982449 0.0448778 0.02743106 0.04043946 -0.3250892 -0.30054966 0.105942294 -0.09898093
-0.17962746 0.2069206 0.09760732 -0.012723779 -0.113257796 0.07582347 0.12279864 0.23525031
0.1547702 0.044310782 -0.015460134 -0.12559332 -0.07866677 -0.19230112 -0.28536716 -0.28048387
-0.13441093 -0.005227403 0.013241985 -0.08356862 -0.08146814 0.07213809 0.0037716331 0.16211672
-0.17828073 -0.06634477 0.033137932 0.20522748 0.01694498 -0.045102756 0.06404254 0.12545893
-0.014933566 0.10303038 -0.08701094 0.08205788 -0.022722563 0.13710244 -0.22458446 -0.37327138
0.40605384 0.008575431 0.24456902 0.122429356 -0.121060155 -0.09547112 -0.026446758 0.0041051204
-0.07144627 0.05456954 0.020034712 -0.31878167 0.015692571 0.07576778 0.15332557 -0.022583239
-0.0005402909 0.0487509 0.20418416 -0.16275088 -0.09131501 0.17820364 -0.23806624 -0.26334056
0.009675206 0.14467998 0.06157013 0.23775162 0.14840516 -0.05596205 0.011308406 0.09850351
-0.07455975 -0.12462836 0.01020109 0.038173698 -0.02265663 -0.06478761 -0.09692047 -0.10859926
0.005248283 -0.18665479 0.17528395 -0.15117113 0.1498174 0.051775545 -0.05987745 0.071048774
-0.16767983 -0.028411629 0.063271694 0.13012794 0.24048182 -0.030993884 -0.31963193 0.045954928
0.24320498 -0.16309857 0.17050008 0.12214045 -0.11178588 -0.18071888 -0.1655857 -0.03187039
0.0037636438 0.072807565 -0.025261212 -0.025033984 -0.028828086 0.21390946 0.13811542 0.29060566
0.05657336 -0.042957876 -0.004290068 -0.15297551 -0.13440546 -0.14068884 -0.0059305457 -0.08372098
0.18763657 -0.25546923 -0.16464081 0.2150867 0.21994562 0.29022306 0.10675227 0.07481149
0.2742986 0.18420702 -0.065415695 0.03711808 0.34238985 0.036430646 0.066963196 0.032576125
-0.08051462 0.07876873 -0.09926116 0.0716929 0.042310353 0.11365016 0.057242587 -0.25016314
-0.021473419 -0.20535317 0.0042105466 0.08264701 -0.11321499 0.08008716 -0.006531312 -0.15170835
0.031762622 -0.015817285 -0.013506813 0.11479933 -0.058727168 -0.07060012 0.016117143 -0.1013304
0.063448295 0.22487858 -0.13941109 0.11596375 0.04670485 0.11485606 0.04084474 -0.16112426
-0.22617847 0.10603566 -0.029996451 -0.06791534 -0.06294605 0.05849538 0.13761123 -0.053751595
0.02440133 -0.16989182 -0.19889864 0.08096966 0.28121778 -0.041499436 0.03438076 -0.006856209
0.111479566 0.1590697 0.042285528 -0.12710194 0.15713319 -0.2224088 -0.06632268 0.17882778
0.098783754 -0.0181055 -0.20618474 -0.10620578 -0.09564806 0.06908016 -0.20439494 0.22465284
0.032911275 -0.23602031 0.026237274 -0.15366697 -0.13456315 0.039661225 0.12142461 0.35625544
0.15610641 -0.31121665 -0.2097366 -0.16484918 -0.18102455 0.22888254 -0.14319332 0.086849846
00000000: 4c10 88bd e0bc 80be 0b53 ce3e 8a73 d53c
00000010: 2591 81bd ef29 51be 05bb 5bbd bc48 e63c
00000020: ab0e 863d 9cc1 fcbc e031 0f3e ff4b 1d3e
00000030: d6bb a13c db27 863c 545e 093e 9c9f ca3d
00000040: 5f60 bebd 5232 64be bdf7 3fbe f3c3 55be
00000050: 246b 47bd 7923 c4bd a344 183e 8473 e63c
00000060: c315 a5bd 9223 50bd 38e8 023d c2eb 8ebe
00000070: a2f0 dcbd f88c c7bb d876 24bc 1eac 273e
00000080: 2400 8f3d c9d1 373d 1ab7 e03c d9a3 253d
00000090: 1772 a6be a5e1 99be 46f8 d83d 84b6 cabd
000000a0: 43f0 37be fee2 533e 59e6 c73d 6677 50bc
000000b0: b4f3 e7bd 5649 9b3d da7d fb3d 75e5 703e
000000c0: 147c 1e3e 397f 353d 804c 7dbc 899b 00be
000000d0: 0b1c a1bd 96ea 44be a51b 92be 959b 8fbe
000000e0: 05a3 09be a24a abbb e9f4 583c 0626 abbd
000000f0: c5d8 a6bd 23bd 933d 812d 773b ed01 263e
00000100: 398f 36be c4df 87bd a4bb 073d 2727 523e
00000110: 33d0 8a3c abbd 38bd bc28 833d 4e78 003e
00000120: eaab 74bc 9801 d33d cb32 b2bd f60d a83d
00000130: ab24 babc 9564 0c3e 78f9 65be 6d1d bfbe
00000140: 4ae6 cf3e f77f 0c3c 4d70 7a3e 3ebc fa3d
00000150: 63ee f7bd 5d86 c3bd dfa6 d8bc 3f84 863b
00000160: 6c52 92bd 4f84 5f3d d61f a43c 5a37 a3be
00000170: b58d 803c 232c 9b3d 6101 1d3e 7c00 b9bc
00000180: 4fa2 0dba 06af 473d a715 513e 2ba8 26be
00000190: 5d03 bbbd 047b 363e a3c7 73be 93d4 86be
000001a0: c184 1e3c fd26 143e f630 7c3d 2975 733e
000001b0: 86f7 173e 7638 65bd e446 393c 35bc c93d
000001c0: c8b2 98bd 273d ffbd 7922 273c 065c 1c3d
000001d0: 669a b9bc 5eaf 84bd 3d7e c6bd 4a69 debd
000001e0: caf9 ab3b 6f22 3fbe a37d 333e 9bcc 1abe
000001f0: bc69 193e 9812 543d 0f42 75bd 0582 913d
00000200: 43b4 2bbe 81bf e8bc 9794 813d 4240 053e
00000210: de40 763e e3e6 fdbc cca6 a3be 3c3b 3c3d
00000220: ba0a 793e 5003 27be 9397 2e3e c624 fa3d
00000230: ffef e4bd 5f0e 39be 4c8f 29be 878a 02bd
00000240: 77a7 763b 221c 953d 9af0 cebc 1214 cdbc
00000250: e128 ecbc 150b 5b3e 216e 0d3e 44ca 943e
00000260: 78b9 673d 99f4 2fbd b393 8cbb 9da5 1cbe
00000270: 96a1 09be bc10 10be 0655 c2bb e875 abbd
00000280: cd23 403e ddcc 82be 9a97 28be b03f 5c3e
00000290: 6d39 613e 1e98 943e efa0 da3d c436 993d
000002a0: de70 8c3e c4a0 3c3e aaf8 85bd 2109 183d
000002b0: b94d af3e 4d38 153d 0024 893d 8b6e 053d
000002c0: d9e4 a4bd 8051 a13d 6f49 cbbd bad3 923d
000002d0: 9f4d 2d3d 6ac1 e83d 3477 6a3d 6215 80be
000002e0: 06e9 afbc 1a48 52be a0f8 893b d642 a93d
000002f0: 43dd e7bd bd04 a43d 9e04 d6bb 6f59 1bbe
00000300: 8619 023d 4093 81bc ae4b 5dbc e91b eb3d
00000310: e68b 70bd cc96 90bd 1908 843c 5086 cfbd
00000320: 2ef1 813d 9246 663e c8c1 0ebe 677e ed3d
00000330: 964d 3f3d a739 eb3d d04c 273d c2fd 24be
00000340: 549b 67be 3929 d93d 1ebb f5bc 3317 8bbd
00000350: dce9 80bd da98 6f3d f5e9 0c3e a22a 5cbd
00000360: 4ce5 c73c 1ff8 2dbe 16ac 4bbe 6cd3 a53d
00000370: c7fb 8f3e 50fb 29bd d7d2 0c3d 0daa e0bb
00000380: 664f e43d 2be3 223e 9733 2d3d 0327 02be
00000390: 86e7 203e 22bf 63be 2fd4 87bd a11e 373e
000003a0: 234f ca3d fc51 94bc 1822 53be 6a82 d9bd
000003b0: 21e3 c3bd e679 8d3d e84c 51be 650b 663e
000003c0: f9cd 063d 4faf 71be 8def d63c e05a 1dbe
000003d0: ecca 09be cf73 223d 77ad f83d 1d67 b63e
000003e0: 5cda 1f3e ca57 9fbe 31c5 56be 39ce 28be
000003f0: 805e 39be 2f60 6a3e 45a1 12be 55de b13d

layer1.bias f4 [256]
-0.0051810634 -0.061566055 0.07154744 -0.16869816 -0.1326156 0.08290329 0.15539472 0.114338584
-0.14090319 -0.10153406 0.075326934 -0.06881605 -0.08208086 -0.13407142 -0.14192085 -0.09713733
-0.121413335 -0.08426634 0.13591668 0.12956183 0.028583806 0.033396114 -0.05481909 0.016835386
-0.14780413 0.043703683 0.092365935 -0.14834176 -0.011485606 0.047094345 -0.0034968492 -0.015036177
0.07039363 -0.12341586 0.089569286 -0.07154812 -0.043583587 -0.1543708 -0.12830667 0.035138268
0.09638863 0.11013335 0.1626021 0.07383949 -0.12210374 -0.13837238 0.051455323 0.022900438
0.06923999 -0.11774686 -0.10900733 -0.04802672 0.036642443 -0.037597068 0.16602938 -0.03467159
-0.047659997 -0.026562436 -0.081430316 -0.13339385 -0.11794703 0.07702534 0.11650244 0.0061930236
-0.04386277 -0.006920057 0.06291951 0.04599162 0.11721252 0.024992228 -0.16460629 0.121332355
-0.028221194 0.08866986 0.07486431 -0.1257275 0.02457488 -0.10659266 -0.046088655 -0.15087545
0.17657284 -0.016645184 0.06649379 0.08824449 -0.020587852 -0.07617898 0.11687906 -0.06798111
-0.061176624 -0.010467398 0.018226763 0.01702943 -0.028409211 -0.056911267 -0.019672627 0.06518979
0.13726091 -0.15452087 0.011737665 -0.028430823 0.14474338 -0.17175029 -0.11776855 -0.06679316
0.11147119 0.12416128 0.059547383 0.06822765 -0.0051257405 -0.04758805 0.025826063 -0.052661747
0.05607662 0.114302844 0.00896327 -0.08825146 -0.03357819 -0.03313463 -0.05815579 0.042456385
-0.06428193 0.08172382 0.04578239 -0.03916639 0.14144275 -0.056538038 -0.0428645 0.08728621
0.08464426 -0.07493009 -0.005085833 0.113364145 -0.10150229 -0.08685129 0.117406204 0.15197138
-0.0428053 -0.1632383 -0.034203336 0.076714896 0.058616273 0.0025633571 0.06377368 0.052420463
0.13267219 -0.011550433 0.12903142 -0.03964519 0.06869257 -0.11461995 -0.025727905 0.029810246
-0.09743166 -0.119185194 0.018272158 0.019438034 0.0046486575 -0.010137773 -0.070794076 -0.05042309
-0.07617601 0.14339636 -0.10720606 -0.13086915 0.030281251 -0.15650305 0.09906403 0.14394231
0.010146782 -0.05014285 -0.154182 -0.050358616 -0.056785557 0.13622218 0.123431556 -0.1262454
0.0996478 0.067129195 -0.054432724 -0.003034581 -0.020563988 0.051792234 0.008380837 0.00809601
-0.050906256 -0.05989707 -0.063928485 0.14440683 0.08380202 -0.018297078 0.096773334 -0.101097
-0.038380016 -0.1330614 -0.12758762 -0.0019552684 -0.075389035 -0.058039747 -0.0018781996 -0.11534004
0.046874493 -0.073768884 -0.16426314 0.16146804 -0.060268402 0.09683362 -0.025591569 -0.14159459
-0.08040699 -0.038020797 -0.09478261 -0.12866579 -0.11036364 0.030649738 0.022398388 -0.10335914
0.0634136 0.06906041 0.10573359 0.09374315 0.14088295 0.059017368 0.08622733 -0.14580058
-0.09522139 -0.0933919 -0.06384971 -0.13507196 -0.14503267 0.0020476496 -0.07631576 -0.07964136
0.006730832 0.004623635 0.046434972 -0.09191908 -0.012140896 -0.047426134 -0.116833 -0.044560496
0.05419776 -0.005068394 0.17958157 -0.08529408 0.08689262 0.036687564 -0.032076247 0.010480966
-0.124059945 0.014604987 0.057421762 0.07134549 -0.007433423 0.14904736 0.0033729603 0.09267609
00000000: e9c5 a9bb b02c 7cbd 7787 923d 36bf 2cbe
00000010: 62cc 07be 33c9 a93d cb1f 1f3e 592a ea3d
00000020: ed48 10be 17f1 cfbd 0245 9a3d 6eef 8cbd
00000030: 031a a8bd 054a 09be b353 11be f0ef c6bd
00000040: 8ea7 f8bd d593 acbd be2d 0b3e dbab 043e
00000050: 9628 ea3c 5dca 083d fb89 60bd 5dea 893c
00000060: f759 17be a202 333d 5a2a bd3d e7e6 17be
00000070: 202e 3cbc 00e6 403d 652b 65bb 4c5a 76bc
00000080: 892a 903d 74c1 fcbd 1a70 b73d d287 92bd
00000090: b484 32bd 6113 1ebe d362 03be 25ed 0f3d
000000a0: 6767 c53d 988d e13d 2a81 263e 2939 973d
000000b0: 8711 fabd 7db1 0dbe d1c2 523d b399 bb3c
000000c0: b2cd 8d3d 4425 f1bd 3c3f dfbd aab7 44bd
000000d0: 6316 163d 62ff 19bd 9b03 2a3e cc03 0ebd
000000e0: 2137 43bd 7799 d9bc f0c4 a6bd 6698 08be
000000f0: 368e f1bd 76bf 9d3d d598 ee3d d9ee ca3b
00000100: 73a9 33bd a5c1 e2bb f2db 803d b561 3c3d
00000110: 1e0d f03d 80bc cc3c 8d8e 28be 197d f83d
00000120: 2230 e7bc 8b98 b53d 7652 993d b6be 00be
00000130: 4251 c93c 414d dabd 75c7 3cbd 187f 1abe
00000140: 83cf 343e 7b5b 88bc e52d 883d 87b9 b43d
00000150: dba7 a8bc ba03 9cbd 4a5e ef3d ae39 8bbd
00000160: 5794 7abd 737f 2bbc 4b50 953c 4e81 8b3c
00000170: 6fba e8bc ca1b 69bd 7d28 a1bc 3a82 853d
00000180: 208e 0c3e b83a 1ebe 564f 403c c2e7 e8bc
00000190: 9c37 143e 4fdf 2fbe a330 f1bd daca 88bd
000001a0: 024b e43d 4548 fe3d f5e7 733d f0ba 8b3d
000001b0: d4f5 a7bb b0eb 42bd 2e91 d33c d8b3 57bd
000001c0: 99b0 653d 9c17 ea3d aeda 123c 2ebd b4bd
000001d0: 4989 09bd 2eb8 07bd c434 6ebd bfe6 2d3d
000001e0: 3fa6 83bd d15e a73d 5186 3b3d f06c 20bd
000001f0: 5ed6 103e 6e94 67bd b092 2fbd 1dc3 b23d
00000200: f859 ad3d f274 99bd 0fa7 a6bb 762b e83d
00000210: 6fe0 cfbd 17df b1bd aa72 f03d 639e 1b3e
00000220: 9c54 2fbd f127 27be cc18 0cbd b31c 9d3d
00000230: 9e17 703d fffd 273b c69b 823d d7b6 563d
00000240: 38db 073e 073e 3dbc d020 043e ff62 22bd
00000250: b1ae 8c3d ddbd eabd 54c3 d2bc 9e34 f43c
00000260: 408a c7bd 5e17 f4bd 7eaf 953c 833c 9f3c
00000270: c453 983b e718 26bc 7cfc 90bd 7188 4ebd
00000280: 2b02 9cbd 7fd6 123e da8e dbbd 9002 06be
00000290: 6310 f83c 5642 20be 15e2 ca3d 9d65 133e
000002a0: b03e 263c 9762 4dbd e3e1 1dbe d644 4ebd
000002b0: f997 68bd d47d 0b3e afc9 fc3d 7946 01be
000002c0: 2514 cc3d 087b 893d d9f4 5ebd d2df 46bb
000002d0: cf75 a8bc 1824 543d c74f 093c 21a5 043c
000002e0: 1483 50bd a156 75bd f0ec 82bd 62df 133e
000002f0: 65a0 ab3d c1e3 95bc 1931 c63d f20b cfbd
00000300: 5d34 1dbd 3f41 08be 54a6 02be f623 00bb
00000310: 9165 9abd 16bb 6dbd ec2d f6ba 6637 ecbd
00000320: 78ff 3f3d 2414 97bd 9934 28be e157 253e
00000330: 00dc 76bd b450 c63d 69a5 d1bc 2cfe 10be
00000340: 6cac a4bd b2bb 1bbd 631d c2bd f7c0 03be
00000350: 5506 e2bd 2915 fb3c d37c b73c f5ad d3bd
00000360: fdde 813d 8b6f 8d3d da8a d83d 69fc bf3d
00000370: 9f43 103e 32bc 713d f497 b03d bf4c 15be
00000380: 6f03 c3bd 4144 bfbd a3c3 82bd 4e50 0abe
00000390: 7283 14be dc31 063b 704b 9cbd 021b a3bd
000003a0: 508e dc3b dd81 973b 9932 3e3d 1240 bcbd
000003b0: 9cea 46bc e841 42bd 2446 efbd 1185 36bd
000003c0: 78fe 5d3d c514 a6bb 3be4 373e aaae aebd
000003d0: c2f4 b13d b345 163d 6262 03bd 5cb8 2b3c
000003e0: 2413 febd c149 6f3c 1533 6b3d 961d 923d
000003f0: 1294 f3bb df9f 183e e20c 5d3b f6cc bd3d

bn1.weight f4 [256]
0.92389184 0.94012135 0.94176924 0.9173434 0.95493925 0.82513934 0.87071854 0.9156985
0.8800768 0.88694406 0.89397824 0.9200663 0.85470295 0.91390604 0.87536585 0.85922426
0.91377336 1.0484618 0.9696695 0.9207009 0.94525564 0.93343216 1.0567958 0.9251127
0.93359095 0.997979 0.8533932 0.9165169 0.8597183 1.0317608 0.88436514 0.8977853
0.95192647 0.9561007 0.8916643 0.9677773 0.954801 0.8899422 0.91880155 0.9636231
0.94455403 0.9714294 0.9361803 0.96545136 0.8258601 0.9205725 0.89507776 0.8296927
0.9948986 0.9221614 0.91845906 0.90290546 0.96151245 0.84157866 0.9453514 0.95748174
0.9107441 1.0052562 0.9474897 0.7551149 0.94170517 0.94891196 0.8951164 0.9616126
0.9700802 0.9774965 0.9356646 0.9502704 0.96465456 0.87009954 0.9030449 0.9706062
0.87125754 0.99105436 1.01138 0.8592476 0.92813474 0.92531157 1.0046638 1.0747553
0.9586765 0.9495255 0.8747335 0.8748024 0.9101727 0.91562414 0.974993 0.93241954
0.9323182 0.9624577 0.9816055 0.9053411 1.000255 0.92576396 0.8942515 0.87196594
0.950169 0.87450933 0.9712883 0.9288759 0.8822161 0.92334497 0.86972517 0.88118577
0.8448734 0.8358247 0.88436216 0.9507069 0.92090154 0.94469905 0.90035003 0.9240127
0.9636259 0.94278175 0.8991734 0.9282409 0.8883782 0.82531995 0.87837225 0.93385124
0.8733545 1.0529239 0.9413698 0.8994199 0.9119729 0.9446779 0.9484078 0.9794067
0.9941802 0.9026768 0.90979916 0.9053955 0.9381877 0.82542884 0.8959403 0.91539663
0.9744714 0.96238923 0.8845086 0.94458646 0.93874973 0.9488056 0.8454593 0.90310884
0.89822674 0.919164 0.9004559 0.9959006 0.8900212 0.83502567 0.94679886 0.9435669
0.8594966 0.789288 0.9578143 0.97458327 0.9211169 0.79423654 1.0020487 0.92082596
0.8368 0.88510394 0.86218727 0.8730078 0.94181645 0.9770111 0.92280394 0.94496
0.99793947 0.90059 0.93751854 0.9399137 0.9299942 0.9345035 0.9109764 0.8290516
1.0130402 0.9482756 0.92817324 0.9981139 0.8847449 0.8674341 0.87245584 0.9293371
0.9622507 0.90902436 0.9393674 0.88407964 0.8574574 0.9037191 1.0156243 0.8047878
0.8453681 0.83937514 1.0073181 1.0374339 0.9397895 0.9146613 0.91252226 0.87921095
0.9277845 0.9039377 0.98029447 0.963237 0.91029483 0.94609237 0.96816987 0.8799625
1.0204259 0.9554507 0.90738225 0.90938663 0.80672836 0.8622258 0.95134264 0.9073142
0.86067325 0.9049526 0.9722651 0.7795982 0.98117346 0.9091811 0.88862413 0.9271126
0.8629137 0.84427917 1.007131 0.95796365 0.8820947 0.89904785 0.8989755 0.833447
0.91542786 0.94596213 0.9708232 0.87438565 1.0227358 0.91952455 0.93980134 0.91814303
0.93625534 0.898047 1.0124043 0.93449 1.016442 0.9196082 0.926948 0.9309089
0.88675755 0.8851149 0.9289358 0.8789482 0.95378816 0.9483235 0.87824816 0.8884827
00000000: 2d84 6c3f cbab 703f ca17 713f 04d7 6a3f
00000010: e676 743f 553c 533f 69e7 5e3f 386b 6a3f
00000020: b74c 613f c40e 633f c2db 643f 7789 6b3f
00000030: d0cd 5a3f bff5 693f fa17 603f 1ff6 5b3f
00000040: 0ded 693f ff33 863f 433c 783f 0eb3 6b3f
00000050: 46fc 713f 69f5 6e3f 1645 873f 30d4 6c3f
00000060: d1ff 6e3f 8d7b 7f3f fa77 5a3f daa0 6a3f
00000070: 8016 5c3f bd10 843f c165 623f 42d5 653f
00000080: 74b1 733f 04c3 743f 1d44 643f 41c0 773f
00000090: d76d 743f 41d3 633f 9436 6b3f 01b0 763f
000000a0: 4bce 713f 99af 783f 83a9 6f3f d227 773f
000000b0: 916b 533f a4aa 6b3f d123 653f be66 543f
000000c0: adb1 7e3f c512 6c3f 2220 6b3f d024 673f
000000d0: ae25 763f b371 573f 8d02 723f 861d 753f
000000e0: 8626 693f 3cac 803f af8e 723f 364f 413f
000000f0: 9713 713f e5eb 723f 5926 653f 3e2c 763f
00000100: 2d57 783f 363d 7a3f b787 6f3f ec44 733f
00000110: 9af3 763f d8be 5e3f f32d 673f a679 783f
00000120: bc0a 5f3f bdb5 7d3f e674 813f a7f7 5b3f
00000130: 3d9a 6d3f 38e1 6c3f d398 803f 9591 893f
00000140: d36b 753f 1a14 733f 89ee 5f3f 0df3 5f3f
00000150: 1401 693f 5866 6a3f 2499 793f 0cb3 6e3f
00000160: 68ac 6e3f a163 763f 804a 7b3f 6fc4 673f
00000170: 5b08 803f defe 6c3f abed 643f 2939 5f3f
00000180: 473e 733f d8df 5f3f 5aa6 783f d0ca 6d3f
00000190: ead8 613f 5660 6c3f 4fa6 5e3f 6495 613f
000001a0: a049 583f 9cf8 553f 8f65 623f 8761 733f
000001b0: 34c0 6b3f ccd7 713f 577d 663f 198c 6c3f
000001c0: 30b0 763f 255a 713f 3a30 663f 32a1 6d3f
000001d0: c16c 633f 2b48 533f 01dd 603f e010 6f3f
000001e0: 2994 5f3f 36c6 863f 9cfd 703f 6240 663f
000001f0: 0e77 693f 69d6 713f dbca 723f 66ba 7a3f
00000200: 9882 7e3f d415 673f 99e8 683f 00c8 673f
00000210: 122d 703f 4e4f 533f 585c 653f 6f57 6a3f
00000220: f576 793f 245f 763f 286f 623f 6bd0 713f
00000230: e751 703f ece4 723f 0570 583f 2432 673f
00000240: 30f2 653f 554e 6b3f 4784 663f 57f3 7e3f
00000250: 6ed8 633f 3ec4 553f 6961 723f 9a8d 713f
00000260: f807 5c3f c70e 4a3f 5133 753f 4a7e 793f
00000270: 51ce 6b3f 1653 4b3f 2243 803f 40bb 6b3f
00000280: 8638 563f 2c96 623f 4eb8 5c3f 707d 5f3f
00000290: e21a 713f 661d 7a3f e13c 6c3f e6e8 713f
000002a0: f678 7f3f 118d 663f 3701 703f 2f9e 703f
000002b0: 1a14 6e3f 9f3b 6f3f c035 693f ba3c 543f
000002c0: 4dab 813f 31c2 723f c39c 6d3f 6484 7f3f
000002d0: a47e 623f 2910 5e3f 4459 5f3f 09e9 6d3f
000002e0: 1056 763f d2b5 683f 627a 703f 0b53 623f
000002f0: 5482 5b3f 235a 673f faff 813f 9306 4e3f
00000300: 0b6a 583f 4ae1 563f cdef 803f a2ca 843f
00000310: 0b96 703f 3e27 6a3f 0f9b 693f f813 613f
00000320: 4983 6d3f 7668 673f 94f4 7a3f b396 763f
00000330: 1509 693f 1c33 723f fbd9 773f 3945 613f
00000340: 519d 823f 6b98 743f 344a 683f 90cd 683f
00000350: c085 4e3f d4ba 5c3f 318b 733f be45 683f
00000360: 1555 5c3f f9aa 673f 5ee6 783f bf93 473f
00000370: 2f2e 7b3f 18c0 683f df7c 633f 4057 6d3f
00000380: eae7 5c3f ae22 583f abe9 803f 1b3d 753f
00000390: f5d0 613f 0028 663f 4223 663f c85c 553f
000003a0: 7b59 6a3f 932a 723f df87 783f bdd7 5f3f
000003b0: 02e9 823f f665 6b3f d296 703f 6c0b 6b3f
000003c0: 6eae 6f3f 68e6 653f 7796 813f bd3a 6f3f
000003d0: c51a 823f 716b 6b3f 774c 6d3f 0c50 6e3f
000003e0: 8b02 633f e496 623f bdce 6d3f c002 613f
000003f0: 762b 743f 54c5 723f dfd4 603f 9a73 633f

bn1.bias f4 [256]
-0.33150873 -0.49670184 -0.33594444 -0.36015806 -0.37369397 -0.26337492 -0.42115912 -0.35485485
-0.19135985 -0.37262663 -0.40480858 -0.44029787 -0.42786947 -0.34708485 -0.31984043 -0.33069414
-0.44089592 -0.45636842 -0.34642488 -0.40203825 -0.28242898 -0.3659754 -0.6188318 -0.33076853
-0.4618718 -0.43461713 -0.12125865 -0.5509544 -0.3056657 -0.358278 -0.50940174 -0.30726075
-0.4492399 -0.4611814 -0.3686543 -0.45744222 -0.52605695 -0.36581334 -0.36513698 -0.47159266
-0.35832894 -0.36740577 -0.5686904 -0.39012358 -0.010581434 -0.37822348 -0.4089885 -0.4001099
-0.40343618 -0.20867646 -0.22010957 -0.28785962 -0.49183172 -0.59927285 -0.50856876 -0.6069452
-0.27842933 -0.44343475 -0.4720925 -0.34630767 -0.3557006 -0.39833874 -0.34458086 -0.5793644
-0.40445223 -0.3750411 -0.2794902 -0.31729904 -0.5787742 -0.40574652 -0.3578528 -0.38049695
-0.37459147 -0.4063428 -0.38173047 -0.38303939 -0.32222995 -0.51753336 -0.49035835 -0.43709767
-0.42170212 -0.41871822 -0.45512572 -0.53700227 -0.5488827 -0.49105665 -0.26399505 -0.46399102
-0.29816002 -0.28663236 -0.3491901 -0.40341026 -0.27469915 -0.21372853 -0.43331602 -0.3398373
-0.44028524 -0.18680727 -0.5073248 -0.54712754 -0.49476728 -0.42832065 -0.40959966 -0.50337195
-0.27177018 -0.50031185 -0.43708846 -0.37202662 -0.5389407 -0.3805986 -0.47558632 -0.4134264
-0.4774305 -0.44021538 -0.23773524 -0.46641907 -0.36803553 -0.36183447 -0.39543453 -0.53326994
-0.3803517 -0.44437563 -0.5165679 -0.25932732 -0.5516759 -0.3778418 -0.51319754 -0.47002742
-0.44826135 -0.5895368 -0.5634385 -0.33638144 -0.34434417 -0.1885972 -0.444205 -0.40661252
-0.59242433 -0.4070548 -0.50714266 -0.42330894 -0.4890633 -0.38318798 -0.5169486 -0.36259502
-0.4498637 -0.3890859 -0.48681274 -0.5415218 -0.45414835 -0.40182352 -0.5393567 -0.35216224
-0.42667302 -0.34526405 -0.38371402 -0.3398 -0.4555505 -0.36991113 -0.44918847 -0.2881171
-0.35648736 -0.4359257 -0.4900534 -0.26580128 -0.37840772 -0.52090234 -0.31355685 -0.4146748
-0.38793555 -0.39445338 -0.43623236 -0.42384532 -0.34396142 -0.40898246 -0.51672614 -0.38838688
-0.3794065 -0.5497807 -0.4413485 -0.34935015 -0.5111627 -0.50555986 -0.49167234 -0.44696262
-0.5748721 -0.34155187 -0.62875223 -0.38434383 -0.4086618 -0.35885867 -0.45633727 -0.23736687
-0.2640026 -0.49825078 -0.44979766 -0.466464 -0.44248834 -0.28523472 -0.30991364 -0.44306228
-0.57422847 -0.40358016 -0.59364516 -0.33892226 -0.37829268 -0.37428263 -0.5853632 -0.2673466
-0.5679649 -0.4638965 -0.34895778 -0.16273732 -0.059703697 -0.42059824 -0.5079615 -0.38652074
-0.19680692 -0.4563812 -0.36106715 -0.33541942 -0.46105152 -0.22526248 -0.41390038 -0.5597398
-0.36733997 -0.41551968 -0.56477463 -0.51131994 -0.20885855 -0.26006263 -0.27966014 -0.101066045
-0.23918925 -0.35753283 -0.27755117 -0.4186887 -0.5547026 -0.42451525 -0.4446858 -0.5194338
-0.38198596 -0.3205066 -0.36340782 -0.3232471 -0.44464943 -0.38817066 -0.4647208 -0.31958282
-0.3553013 -0.39036 -0.3577051 -0.26558676 -0.28585613 -0.27814436 -0.5576302 -0.5177803
00000000: 83bb a9be b44f febe e900 acbe a366 b8be
00000010: d154 bfbe 14d9 86be 2ba2 d7be 89af b5be
00000020: d6f3 43be ebc8 bebe 1243 cfbe b96e e1be
00000030: b511 dbbe 1bb5 b1be 20c2 a3be be50 a9be
00000040: 1cbd e1be 1fa9 e9be 9a5e b1be f5d7 cdbe
00000050: 889a 90be 2161 bbbe c36b 1ebf 7e5a a9be
00000060: 767a ecbe 2386 debe 7556 f8bd 590b 0dbf
00000070: 3780 9cbe 3770 b7be 2768 02bf 4851 9dbe
00000080: c602 e6be f81f ecbe 42c0 bcbe de35 eabe
00000090: abab 06bf e34b bbbe 3cf3 babe 9874 f1be
000000a0: e476 b7be 9c1c bcbe b295 11bf 47be c7be
000000b0: c05d 2dbc 82a6 c1be f166 d1be 34db ccbe
000000c0: 308f cebe 48af 55be 6764 61be 5662 93be
000000d0: 5ed1 fbbe f269 19bf 9031 02bf c360 1bbf
000000e0: 4a8e 8ebe e109 e3be 1cb6 f1be 3d4f b1be
000000f0: 641e b6be 0ef3 cbbe e76c b0be 3a51 14bf
00000100: 5d14 cfbe 6305 c0be 5719 8fbe 0575 a2be
00000110: 8c2a 14bf 02be cfbe 7b38 b7be 7fd0 c2be
00000120: 74ca bfbe 2a0c d0be 2d72 c3be bd1d c4be
00000130: 53fb a4be 117d 04bf 4010 fbbe 44cb dfbe
00000140: 57e9 d7be 3c62 d6be 3d06 e9be fb78 09bf
00000150: 9483 0cbf c76b fbbe 5c2a 87be 3b90 edbe
00000160: 6ea8 98be 7ac1 92be 0bc9 b2be ca8b cebe
00000170: 5ea5 8cbe a7db 5abe 99db ddbe 28ff adbe
00000180: 116d e1be 684a 3fbe 0ae0 01bf 8d10 0cbf
00000190: 2352 fdbe d84c dbbe 0cb7 d1be fcdc 00bf
000001a0: 7625 8bbe 7014 00bf 0fca dfbe 467a bebe
000001b0: 05f8 09bf d2dd c2be 0d80 f3be a0ac d3be
000001c0: c571 f4be e963 e1be de70 73be 7bce eebe
000001d0: 276f bcbe 5e42 b9be 6576 cabe 6184 08bf
000001e0: 75bd c2be 3485 e3be cb3d 04bf 8dc6 84be
000001f0: a23a 0dbf 7b74 c1be ea60 03bf 6fa7 f0be
00000200: 8382 e5be e2eb 16bf 813d 10bf 303a acbe
00000210: e14d b0be a01f 41be d66e e3be 842f d0be
00000220: 1fa9 17bf 7d69 d0be 1ad4 01bf f3bb d8be
00000230: 8166 fabe 3731 c4be be56 04bf 0ea6 b9be
00000240: 8954 e6be 4436 c7be 853f f9be 2ca1 0abf
00000250: 2286 e8be d0bb cdbe 4813 0abf 9c4e b4be
00000260: e374 dabe 73c6 b0be 2a76 c4be 44fa adbe
00000270: ea3d e9be fe64 bdbe 08fc e5be 1684 93be
00000280: 8385 b6be a731 dfbe 47e8 fabe 1b17 88be
00000290: a8be c1be db59 05bf 868a a0be 4150 d4be
000002a0: 7d9f c6be cbf5 c9be d959 dfbe 4102 d9be
000002b0: b61b b0be 2666 d1be 2a48 04bf a5da c6be
000002c0: 9241 c2be 6ebe 0cbf 6ef8 e1be 06de b2be
000002d0: 8fdb 02bf 5f6c 01bf 7abc fbbe 49d8 e4be
000002e0: d12a 13bf e3df aebe e8f5 20bf b7c8 c4be
000002f0: 1f3c d1be 53bc b7be 0aa5 e9be 4d10 73be
00000300: 592b 87be ba1a ffbe e14b e6be 5fd4 eebe
00000310: d58d e2be 490a 92be 00ad 9ebe 0fd9 e2be
00000320: a300 13bf 0fa2 cebe 21f9 17bf 3887 adbe
00000330: 94af c1be f9a1 bfbe 5dda 15bf a7e1 88be
00000340: 2666 11bf d883 edbe 98aa b2be 9da4 26be
00000350: dd8b 74bd a758 d7be c409 02bf 0ce6 c5be
00000360: c187 49be ccaa e9be cbdd b8be 18bc abbe
00000370: f20e ecbe 35ab 66be c0ea d3be 1c4b 0fbf
00000380: fc13 bcbe ffbe d4be 1295 10bf dde5 02bf
00000390: 04df 55be ee26 85be 9d2f 8fbe b7fb cebd
000003a0: 07ee 74be 8b0e b7be 301b 8ebe 5e5e d6be
000003b0: fd00 0ebf 105a d9be dbad e3be 9df9 04bf
000003c0: aa93 c3be 7119 a4be 9710 babe a580 a5be
000003d0: 17a9 e3be 4ebe c6be e2ef edbe 5ca0 a3be
000003e0: 0dea b5be 44dd c7be 1f25 b7be fdfa 87be
000003f0: bc5b 92be f068 8ebe dac0 0ebf 408d 04bf

bn1.running_mean f4 [256]
-0.03043806 -0.09848828 0.050789773 -0.15269868 -0.103106365 0.027929533 0.15730423 0.12837996
-0.09800121 -0.10315325 0.13405578 -0.089793146 -0.057009097 -0.16267575 -0.17837004 -0.13024232
-0.122226745 -0.008314274 0.13816956 0.17926301 0.09067998 0.03514135 -0.07193081 0.05642474
-0.16975097 0.092323676 0.035681788 -0.1564702 -0.02868443 0.049209867 0.0013257489 -0.05630775
0.028729 -0.14354493 0.08908438 -0.06575793 -0.023798011 -0.17665854 -0.15944652 0.03622739
0.16088697 0.113160044 0.21112245 0.08512823 -0.14177005 -0.15473618 0.09302348 0.055361297
0.11407094 -0.10522047 -0.13216265 -0.03634784 0.035317328 -0.07858482 0.14438944 -0.07210125
0.0074706813 0.006547435 -0.071418226 -0.13052538 -0.168039 0.03080787 0.06962146 -0.0017756149
-0.0050871624 0.01929433 0.050077602 0.03618151 0.15890479 0.014118953 -0.12874678 0.09683851
0.0025382005 0.048940912 0.10451409 -0.119702145 0.041070633 -0.09486116 -0.08572124 -0.10510444
0.15894164 0.027429674 0.09416003 0.11508839 0.00610919 -0.0530239 0.123903 -0.05667463
-0.053159297 -0.0031532878 -0.027949229 -0.010509273 0.010649827 -0.07058476 -0.07272014 0.045157194
0.13672113 -0.19347776 0.005027952 -0.037458815 0.10602182 -0.12944141 -0.1567758 -0.07151712
0.15082291 0.12106935 0.04344758 0.05268513 -0.03035346 -0.062430896 0.0631778 -0.1147719
0.113368064 0.1425417 -0.0024666786 -0.08787493 0.039541703 -0.010108778 -0.01492701 -0.0049532345
-0.10299576 0.054024596 0.10397301 -0.099713564 0.187964 -0.085924365 -0.044097576 0.09352277
0.08725452 -0.009280957 -0.10052389 0.13101675 -0.11382544 -0.08376558 0.12213216 0.16275865
-0.06681128 -0.13990954 -0.00031566108 0.07743464 0.076566555 -0.03482647 0.09681197 0.05933257
0.1351975 -0.026296433 0.11397717 -0.026730083 0.10040055 -0.112418085 -0.058508888 0.005003879
-0.08637716 -0.114724346 0.044810142 0.0050312504 -0.025087634 -0.013808131 -0.011602195 -0.09153272
-0.0923774 0.18042281 -0.037166823 -0.1383908 -0.005007281 -0.15806037 0.12024334 0.2314257
0.049553264 -0.010480886 -0.16155437 -0.011979526 -0.11405191 0.10644412 0.095571004 -0.16924922
0.11310202 0.044733066 -0.058487274 -0.008829041 -0.0008039209 0.06434569 0.012590239 0.0015484206
-0.043434322 -0.04876529 -0.12316315 0.2298953 0.1453141 -0.060688503 0.066416256 -0.09637608
-0.08097876 -0.08125897 -0.13666241 0.010848096 -0.11934109 -0.098118715 0.014426429 -0.14546731
0.08603916 -0.04270103 -0.19756632 0.15578443 -0.10197164 0.109332785 -0.027308721 -0.13882138
-0.097511426 -0.088574484 -0.08515012 -0.14105742 -0.14113036 0.02325523 0.003801501 -0.11448307
0.049776737 0.09436603 0.14454152 0.09930275 0.13977699 0.02726151 0.08224051 -0.1546574
-0.054704335 -0.105690815 -0.053436182 -0.1216942 -0.16658585 0.035368133 -0.054836363 -0.089621134
-0.0045533422 0.03275758 0.010021832 -0.115472294 -0.019679444 -0.067015365 -0.050048113 0.046781514
0.091166124 -0.013955841 0.186144 -0.13960418 0.10319898 0.05677483 -0.046853237 0.07375184
-0.12059604 -0.011065974 0.0735322 0.118102185 -0.03980408 0.15341443 0.031963635 0.08079427
00000000: 3d59 f9bc 39b4 c9bd f008 503d 0b5d 1cbe
00000010: 6e29 d3bd 7acc e43c 5c14 213e 0976 033e
00000020: dcb4 c8bd 0342 d3bd eb45 093e 78e5 b7bd
00000030: 5f82 69bd 7994 26be a3a6 36be 3e5e 05be
00000040: 0452 fabd 9838 08bc 527c 0d3e b990 373e
00000050: 6db6 b93d 60f0 0f3d 7650 93bd a11d 673d
00000060: 33d3 2dbe 3214 bd3d 1127 123d b939 20be
00000070: 9cfb eabc 4990 493d c0c4 ad3a f5a2 66bd
00000080: 1459 eb3c 71fd 12be df71 b63d 18ac 86bd
00000090: 0cf4 c2bc fae5 34be f345 23be 2c63 143d
000000a0: 8ebf 243e 74c0 e73d 7c30 583e b657 ae3d
000000b0: 2b2c 11be 2973 1ebe 1883 be3d 87c2 623d
000000c0: 069e e93d d47d d7bd a555 07be 79e1 14bd
000000d0: e7a8 103d 14f1 a0bd d3da 133e d2a9 93bd
000000e0: 9ecc f43b de8b d63b b843 92bd 72a8 05be
000000f0: 6a12 2cbe c960 fc3c b295 8e3d c0bb e8ba
00000100: 36b2 a6bb 250f 9e3c 2c1e 4d3d 1033 143d
00000110: f0b7 223e 2e53 673c 32d6 03be 4553 c63d
00000120: f057 263b 4476 483d 7c0b d63d 6626 f5bd
00000130: ae39 283d 9146 c2bd 9e8e afbd ff40 d7bd
00000140: 99c1 223e 32b4 e03c f9d6 c03d 76b3 eb3d
00000150: 9a2f c83b 972f 59bd dbc0 fd3d a823 68bd
00000160: 90bd 59bd 64a7 4ebb c8f5 e4bc 162f 2cbc
00000170: 9d7c 2e3c be8e 90bd 4cee 94bd c0f6 383d
00000180: a000 0c3e 091f 46be 85c1 a43b 6a6e 19bd
00000190: f821 d93d 4a8c 04be d689 20be 9177 92bd
000001a0: 5271 1a3e 35f3 f73d 17f6 313d 5dcc 573d
000001b0: d2a7 f8bc 8ab7 7fbd 5d63 813d 880d ebbd
000001c0: 842d e83d 74f6 113e 00a8 21bb c5f7 b3bd
000001d0: 7bf6 213d 4a9f 25bc 6b90 74bc be4e a2bb
000001e0: 71ef d2bd e548 5d3d cdef d43d a036 ccbd
000001f0: a379 403e 1df9 afbd a99f 34bd de88 bf3d
00000200: 7fb2 b23d 280f 18bc 78df cdbd 4129 063e
00000210: 501d e9bd 4a8d abbd 6d20 fa3d 34aa 263e
00000220: 5ad4 88bd 7244 0fbe 507f a5b9 0d96 9e3d
00000230: edce 9c3d 33a6 0ebd 5b45 c63d b506 733d
00000240: 3771 0a3e 9e6b d7bc dd6c e93d 0cf9 dabc
00000250: ce9e cd3d 743b e6bd 04a7 6fbd 94f7 a33b
00000260: 82e6 b0bd 99f4 eabd d78a 373d 30dd a43b
00000270: 9584 cdbc 803b 62bc 2217 3ebc 8275 bbbd
00000280: 5d30 bdbd c2c0 383e 3d3c 18bd 51b6 0dbe
00000290: 1e14 a4bb 94da 21be 2442 f63d dcfa 6c3e
000002a0: 5df8 4a3d 06b8 2bbc 826e 25be c645 44bc
000002b0: 0c94 e9bd 60ff d93d bbba c33d ab4f 2dbe
000002c0: 08a2 e73d 053a 373d 5a90 6fbd afa7 10bc
000002d0: 38be 52ba acc7 833d 4a47 4e3c 60f4 ca3a
000002e0: 30e8 31bd 1dbe 47bd f63c fcbd ac69 6b3e
000002f0: 38cd 143e 8294 78bd 3f05 883d d260 c5bd
00000300: 31d8 a5bd 1a6b a6bd 3bf1 0bbe 36bc 313c
00000310: 1a69 f4bd 77f2 c8bd d45c 6c3c 62f5 14be
00000320: 4d35 b03d 46e7 2ebd d34e 4abe f485 1f3e
00000330: 82d6 d0bd dee9 df3d 8ab6 dfbc 3127 0ebe
00000340: 12b4 c7bd 8a66 b5bd 3063 aebd 5b71 10be
00000350: 7a84 10be c181 be3c 9a22 793b 1a76 eabd
00000360: b1e2 4b3d fa42 c13d b102 143e 3d5f cb3d
00000370: b321 0f3e 8853 df3c b66d a83d 825e 1ebe
00000380: a711 60bd 6d74 d8bd e6df 5abd cf3a f9bd
00000390: 7b95 2abe 2dde 103d 189c 60bd 498b b7bd
000003a0: 3434 95bb d02c 063d 9c32 243c bd7c ecbd
000003b0: c936 a1bc 5a3f 89bd 40ff 4cbd f99d 3f3d
000003c0: 4eb5 ba3d 0aa7 64bc 889c 3e3e 66f4 0ebe
000003d0: fd59 d33d b98c 683d 2ee9 3fbd 340b 973d
000003e0: 0efb f6bd 0f4e 35bc 0d98 963d 8fdf f13d
000003f0: 9a09 23bd ac18 1d3e 4dec 023d 7777 a53d

bn1.running_var f4 [256]
0.7372376 0.82593536 0.58219 0.48071933 0.9699748 0.51500267 0.6346018 0.59421515
0.70582974 0.55389714 0.49844033 0.56662184 1.8355393 0.58264124 0.47837108 0.67976856
0.49944687 0.89240634 0.610436 0.541845 0.75993294 0.5023367 0.55564463 0.53710866
0.76683605 0.50166345 0.67622876 0.54883444 0.71211004 0.56154484 1.190139 0.7213693
0.5499545 0.5207116 0.6588065 0.52236325 0.42501134 0.59894514 0.79141676 0.7217863
0.64863133 0.50444084 0.8064725 0.50613713 0.65548325 1.1916357 1.4044255 0.4891273
0.8071511 0.44687623 0.49836558 0.60331994 1.0979159 0.74233544 0.8782941 0.9318229
0.67485136 0.7444955 0.4638285 0.5741906 0.8215461 0.49605095 0.68944025 0.6483752
0.7338222 0.64197177 0.481517 0.8029259 0.5922295 1.3461872 0.50612104 0.492463
0.60837543 0.580647 0.5364028 0.49988174 0.5192245 0.65647894 0.969698 0.82509637
0.5356325 0.5986876 0.5758767 1.0213711 0.6841796 0.49923676 0.49111634 0.72020966
0.7863781 0.64193445 0.9858803 0.50574833 1.1926286 0.57806975 0.4824909 0.4979097
0.5788021 0.57104737 0.5018283 0.66088164 0.5780065 0.5175113 0.62080866 0.6814555
0.53428364 0.81337017 0.7955157 0.59953725 0.6667992 0.37752804 0.8112221 1.0692176
0.690977 0.58968556 0.7366811 0.52889496 0.57044333 1.2156749 1.9794735 0.68553126
0.5599937 0.54647857 0.8624891 0.73765916 0.8661987 0.5678039 0.45814544 0.5711066
0.52780163 1.0734751 1.0924674 0.5852323 0.5184349 0.7609802 0.4926061 0.8014835
0.5033672 0.5565406 0.57825893 0.47918856 0.5125428 0.7322312 0.7114301 1.4195018
0.43215072 0.62066114 0.3656969 0.4760871 0.3735183 1.1828481 0.6705396 0.50220793
0.68906033 0.89573866 0.58334094 0.719549 0.56250906 0.7319089 0.43451855 0.7205357
0.7134412 0.48336744 1.4664214 0.52758765 0.9698348 0.60164577 0.48306483 0.89155483
0.524915 0.58204865 0.60372454 0.69742495 0.53250533 0.5351185 0.40629858 0.72032994
0.62824804 0.6742428 0.7147549 0.45363405 0.6013906 0.78021514 0.53228736 0.6685976
0.3961812 0.75627595 1.0620328 1.3816919 0.8286709 0.69331765 0.6969566 0.79049915
0.87226945 0.9609326 0.49644825 0.5372121 0.63031316 0.55773526 0.51292765 0.42283905
0.46305364 0.73580396 0.9114885 0.50225663 0.8633146 0.648974 0.8664956 0.5485517
0.9537731 0.59350264 0.6230455 0.79195064 0.6260214 0.504302 0.4792336 0.52983797
0.66362554 0.84894407 0.60718715 0.83784896 0.4315136 0.5864836 1.138975 0.75614053
0.70944434 0.52958477 0.50128573 0.5930088 0.61773217 0.44602272 0.5074547 0.6093144
0.55102545 0.6814508 0.5538986 0.9183334 0.47515982 0.7130364 0.5321271 0.7141241
0.65072775 0.56286126 0.6244044 0.5862734 0.4329371 0.5528023 0.3735395 0.44764575
0.8835721 0.58837813 0.71441156 0.54385495 0.76101536 0.61718786 0.6800113 0.6921155
00000000: 9abb 3c3f 8070 533f 670a 153f d820 f63e
00000010: 4550 783f 37d7 033f 4375 223f 7c1e 183f
00000020: 42b1 343f 34cc 0d3f 9233 ff3e 210e 113f
00000030: f4f2 ea3f fa27 153f 0eed f43e 5005 2e3f
00000040: 80b7 ff3e be74 643f 8945 1c3f 5bb6 0a3f
00000050: f78a 423f 2399 003f ba3e 0e3f f47f 093f
00000060: 5e4f 443f 046d 003f 541d 2d3f 6a80 0c3f
00000070: d84c 363f 67c1 0f3f 7a56 983f a9ab 383f
00000080: d1c9 0c3f 5b4d 053f 8ba7 283f 99b9 053f
00000090: 169b d93e 7854 193f 4a9a 4a3f fdc6 383f
000000a0: b40c 263f 0923 013f fb74 4e3f 3492 013f
000000b0: c0cd 273f 8587 983f 37c4 b33f e56e fa3e
000000c0: 74a1 4e3f f6cc e43e c629 ff3e 2d73 1a3f
000000d0: 8288 8c3f b209 3e3f e2d7 603f f28b 6e3f
000000e0: 0fc3 2c3f 4297 3e3f ee7a ed3e 28fe 123f
000000f0: d850 523f 64fa fd3e 287f 303f ebfb 253f
00000100: c6db 3b3f 4358 243f 6589 f63e 8d8c 4d3f
00000110: 5a9c 173f dd4f ac3f 2691 013f 1c24 fc3e
00000120: 7ebe 1b3f 48a5 143f b251 093f 80f0 ff3e
00000130: e6eb 043f 010f 283f 213e 783f 8439 533f
00000140: 361f 093f 9743 193f a86c 133f 4abc 823f
00000150: 6526 2f3f f69b ff3e 9a73 fb3e a95f 383f
00000160: 1350 493f d155 243f a762 7c3f b978 013f
00000170: 0ea8 983f 61fc 133f 0c09 f73e 05ee fe3e
00000180: 602c 143f 2930 123f d277 003f 8a2f 293f
00000190: 3cf8 133f 9f7b 043f 51ed 1e3f de73 2e3f
000001a0: d0c6 083f 0739 503f eba6 4b3f 467b 193f
000001b0: 5ab3 2a3f 5b4b c13e 40ac 4f3f 1fdc 883f
000001c0: dee3 303f a2f5 163f 2297 3c3f a965 073f
000001d0: 9308 123f 3c9b 9b3f 635f fd3f fa7e 2f3f
000001e0: bf5b 0f3f 05e6 0b3f 16cc 5c3f 3bd7 3c3f
000001f0: 33bf 5d3f 995b 113f 0a92 ea3e 0b34 123f
00000200: 021e 073f a267 893f f9d5 8b3f c9d1 153f
00000210: 26b8 043f 99cf 423f de36 fc3e 062e 4d3f
00000220: acdc 003f 7279 0e3f c708 143f 3458 f53e
00000230: 0136 033f 8173 3b3f 4820 363f 3cb2 b53f
00000240: dc42 dd3e a6e3 1e3f a03c bb3e b0c1 f33e
00000250: ca3d bf3e 9167 973f 7ca8 2b3f b390 003f
00000260: 4266 303f 214f 653f d555 153f 5d34 383f
00000270: 9800 103f 625e 3b3f 3779 de3e 0775 383f
00000280: 15a4 363f f07b f73e b2b3 bb3f fc0f 073f
00000290: 1847 783f 7505 1a3f 4654 f73e f03c 643f
000002a0: d460 063f 2401 153f b18d 1a3f 718a 323f
000002b0: 4552 083f 87fd 083f 5e06 d03e 8b67 383f
000002c0: ddd4 203f 2d9b 2c3f 2dfa 363f b942 e83e
000002d0: bcf4 193f 2ebc 473f fc43 083f 3629 2b3f
000002e0: 43d8 ca3e 4d9b 413f b1f0 873f 48db b03f
000002f0: c723 543f 447d 313f bf6b 323f 275e 4a3f
00000300: 0d4d 5f3f aeff 753f 772e fe3e bb86 093f
00000310: 345c 213f bdc7 0e3f 3a4f 033f 5c7e d83e
00000320: 5e15 ed3e a65d 3c3f 4f57 693f e493 003f
00000330: 3002 5d3f 2923 263f a8d2 5d3f e26d 0c3f
00000340: 792a 743f caef 173f e97f 1f3f 47bd 4a3f
00000350: f042 203f f019 013f 1b5e f53e 76a3 073f
00000360: 5de3 293f 6654 593f 9e70 1b3f 457d 563f
00000370: 5aef dc3e ca23 163f efc9 913f 6d92 413f
00000380: 259e 353f de92 073f 4354 003f 6dcf 173f
00000390: b223 1e3f 175d e43e 8de8 013f 07fc 1b3f
000003a0: 0110 0d3f 8f73 2e3f 4ccc 0d3f e617 6b3f
000003b0: 2648 f33e 8e89 363f 7b39 083f d6d0 363f
000003c0: 1896 263f ad17 103f f7d8 1f3f 0316 163f
000003d0: eea9 dd3e 7484 0d3f 9240 bf3e d331 e53e
000003e0: c831 623f f39f 163f ade3 363f 143a 0b3f
000003f0: e7d1 423f 0600 1e3f 3815 2e3f 7b2e 313f

layer2.weight f4 [128, 256]
0.0014127569 -0.055161532 -0.19277199 -0.16009544 -0.060804557 -0.063974544 -0.07934452 0.020674432
-0.184525 -0.30491132 0.083553076 -0.26730922 -0.3361848 -0.010668882 0.07298051 -0.082951814
-0.12280278 -0.07090958 0.07215699 -0.17562154 -0.19483945 0.027516898 0.12661132 -0.023957895
-0.02873326 0.07682372 0.0067291637 0.013279212 0.03831034 0.047179937 0.0032339161 0.07784071
-0.06555524 -0.04780813 0.09759077 -0.15894471 0.034076717 0.049969662 -0.0017709093 0.11437889
-0.082090996 0.05741982 0.23530333 0.08529975 -0.030000784 -0.31503698 -0.096875854 0.045713488
-0.31288004 0.14339499 -0.10553744 -0.030972252 -0.22463663 0.00041803642 -0.075219385 -0.09127666
-0.016588036 -0.14457504 -0.14775656 -0.09197549 0.08751461 0.073073395 -0.17196964 -0.019127173
-0.10245823 0.05834076 0.06526582 0.06325879 0.044075493 0.07896716 -0.034786347 0.122516915
-0.015638987 0.112598926 0.15595096 0.117028266 0.0020348013 -0.022264013 -0.21950898 0.102472536
-0.09357677 0.055006765 0.17631432 0.019217921 -0.20803495 -0.078141175 -0.0107034 -0.08847407
-0.110861436 0.006990368 0.15422045 -0.15273193 -0.09053105 -0.11432535 0.116802 -0.08483911
-0.11660852 0.008873405 0.02976264 -0.072352976 -0.07412298 -0.06615053 -0.0758892 -0.060025338
0.074223295 0.0709781 0.014394701 -0.26263615 -0.16265205 0.05405637 -0.029745651 0.0067913807
-0.12686981 0.09619296 -0.027114619 -0.04438398 -0.13183136 -0.061996765 -0.18560967 0.06534554
-0.029651286 -0.07049277 -0.037957385 -0.018876059 -0.06453888 -0.13605148 0.0002919862 0.21371807
0.034673937 -0.1888043 -0.11724729 0.07669536 0.048550077 -0.14238578 0.0521688 -0.0052498365
0.1627471 0.020946624 -0.07049963 -0.16100304 -0.00088668184 -0.017892972 -0.055274677 0.0033087356
-0.14810541 0.25641146 0.092538126 -0.1338656 0.08049946 -0.1881387 -0.04269609 -0.016731255
0.043103833 0.031537816 0.008322022 0.13419603 0.032876138 0.24153996 0.11565175 0.033214845
-0.10202836 -0.021817623 -0.22411977 -0.20280746 0.06574868 0.017632352 0.0742987 -0.10257765
-0.15338881 -0.048395984 0.0108306175 -0.06714371 -0.03549105 0.06640183 -0.0042662024 0.015750656
-0.120274544 0.17284493 -0.09179398 -0.034155346 0.0519711 0.086143106 0.101932466 0.08040261
-0.0654288 -0.08599989 0.07598576 -0.21646461 -0.14986715 0.022173794 0.048748024 -0.10051441
-0.00049470563 -0.050091807 -0.07112116 0.02119244 -0.14294203 0.24859749 0.03340965 0.017408183
-0.22144428 -0.17955911 0.17836346 0.17133796 -0.102884956 -0.05007364 -0.05917382 0.07767684
-0.031275783 -0.22165206 -0.24888784 0.1632414 0.06301225 0.08108146 -0.10114122 0.0445769
-0.17900862 -0.036433354 0.12495228 -0.07981173 0.04098985 0.055528946 -0.061054878 -0.27183828
-0.005125781 -0.043328654 0.029160962 -0.038980752 0.056698542 0.06716566 0.15564893 -0.06011656
-0.068997145 -0.11998902 0.105514735 -0.32017872 -0.050439954 0.049631987 0.07760727 0.13518584
-0.122501574 0.034233507 -0.115309216 0.02179122 0.16735764 -0.0761145 0.0056954133 0.048016865
0.114349775 -0.0747558 0.04573519 -0.012210089 0.051106717 0.0892751 0.096292175 0.036543097
00000000: 412c b93a 0ff1 61bd 0566 45be 0ff0 23be
00000010: 330e 79bd 1605 83bd 617f a2bd 6d5d a93c
00000020: 1ff4 3cbe 561d 9cbe e01d ab3d c1dc 88be
00000030: 6a20 acbe 89cc 2ebc ce76 953d a4e2 a9bd
00000040: 0680 fbbd 0b39 91bd 0bc7 933d 22d6 33be
00000050: fe83 47be 1e6b e13c 66a6 013e 5943 c4bc
00000060: 0462 ebbc c155 9d3d 5180 dc3b 0d91 593c
00000070: 4eeb 1c3d c03f 413d 1cf0 533b f36a 9f3d
00000080: d341 86bd 75d2 43bd abdd c73d 67c2 22be
00000090: 0794 0b3d fdac 4c3d db1d e8ba 7b3f ea3d
000000a0: 531f a8bd 0c31 6b3d 5bf3 703e a3b1 ae3d
000000b0: 34c4 f5bc 874c a1be d966 c6bd 113e 3b3d
000000c0: d031 a0be 23d6 123e 0324 d8bd 85b9 fdbc
000000d0: 2507 66be e62b db39 9f0c 9abd 42ef babd
000000e0: a2e3 87bc 7b0b 14be 7f4d 17be a55d bcbd
000000f0: dc3a b33d 81a7 953d cf18 30be 97b0 9cbc
00000100: 9fd5 d1bd b9f6 6e3d 16aa 853d d38d 813d
00000110: 8188 343d 89b9 a13d 217c 0ebd 26ea fa3d
00000120: 551d 80bc 449a e63d 9cb1 1f3e 84ac ef3d
00000130: 4d5a 053b 0563 b6bc f6c6 60be 1fdd d13d
00000140: 2da5 bfbd c64e 613d be8b 343e e76e 9d3c
00000150: 1d07 55be 7b08 a0bd 505d 2fbc e531 b5bd
00000160: 520b e3bd 750f e53b f7eb 1d3e c265 1cbe
00000170: 5868 b9bd 6923 eabd e335 ef3d 21c0 adbd
00000180: 73d0 eebd c261 113c c8d0 f33c cc2d 94bd
00000190: cacd 97bd ee79 87bd cc6b 9bbd 21dd 75bd
000001a0: 6202 983d f75c 913d c1d7 6b3c 3f78 86be
000001b0: 428e 26be 366a 5d3d 27ad f3bc 3b8a de3b
000001c0: 29ea 01be d100 c53d 7a1f debc facb 35bd
000001d0: cdfe 06be 52f0 7dbd 7610 3ebe e2d3 853d
000001e0: 41e7 f2bc 835e 90bd 3479 1bbd f7a1 9abc
000001f0: f62c 84bd 1451 0bbe b915 9939 e9d8 5a3e
00000200: 4206 0e3d ea55 41be 591f f0bd 7512 9d3d
00000210: 72dc 463d 94cd 11be f4ae 553d d206 acbb
00000220: 2da7 263e 4198 ab3c 1c62 90bd fbdd 24be
00000230: 3670 68ba 4894 92bc b367 62bd 5fd7 583b
00000240: f2a8 17be 5d48 833e a184 bd3d 1014 09be
00000250: e7dc a43d 6ea7 40be 18e2 2ebd fc0f 89bc
00000260: a58d 303d cc2d 013d 1759 083c af6a 093e
00000270: 21a9 063d 4056 773e d3da ec3d 4a0c 083d
00000280: 3ff4 d0bd dfba b2bc a77f 65be c2ac 4fbe
00000290: 3ea7 863d b971 903c eb29 983d 3b14 d2bd
000002a0: f511 1dbe de3a 46bd e772 313c a482 89bd
000002b0: 105f 11bd affd 873d 80cb 8bbb 8507 813c
000002c0: 8052 f6bd 43fe 303e 7bfe bbbd 7ae6 0bbd
000002d0: a6df 543d cc6b b03d f8c1 d03d 20aa a43d
000002e0: 89ff 85bd b620 b0bd 6c9e 9b3d e6a8 5dbe
000002f0: c676 19be d1a5 b53c 02ac 473d 80da cdbd
00000300: 22af 01ba 112d 4dbd f9a7 91bd c59b ad3c
00000310: 655f 12be 5790 7e3e 8fd8 083d 9b9b 8e3c
00000320: 4ac2 62be 58de 37be e9a4 363e 3873 2f3e
00000330: 59b5 d2bd 041a 4dbd 3f60 72bd 0915 9f3d
00000340: 091b 00bd c2f8 62be 74dc 7ebe c128 273e
00000350: 910c 813d 090e a63d 2123 cfbd 4496 363d
00000360: 094e 37be 243b 15bd fbe6 ff3d 5574 a3bd
00000370: f9e4 273d 5272 633d ae14 7abd 632e 8bbe
00000380: 2bf6 a7bb 6379 31bd f8e2 ee3c 48aa 1fbd
00000390: bb3c 683d 268e 893d 6f62 1f3e c83c 76bd
000003a0: 604e 8dbd cebc f5bd 1c18 d83d 77ee a3be
000003b0: 209a 4ebd e94a 4b3d 8ff0 9e3d 286e 0a3e
000003c0: 1be2 fabd 6f38 0c3d 3d27 ecbd 8083 b23c
000003d0: cd5f 2b3e ebe1 9bbd 97a0 ba3b 55ad 443d
000003e0: 3730 ea3d 9219 99bd d354 3b3d d30c 48bc
000003f0: 4755 513d ddd5 b63d d534 c53d 37ae 153d

layer2.bias f4 [128]
-0.04984118 0.011470804 0.013355493 -0.017263826 0.009860692 -0.036002908 0.010776397 0.062072493
0.033356376 -0.024610212 -0.04788266 -0.016364487 0.016837422 0.057924584 -0.038649894 0.018413931
0.054850765 0.0043803635 0.01556416 -0.024119612 -0.017282877 -0.022896444 -0.037725516 0.038159247
-0.03961368 0.040242665 -0.028349372 -0.08636187 -0.04930853 -0.03741592 -0.04697166 -0.039146394
0.003215952 0.048226096 0.0058636856 0.05578059 0.021269951 0.049879156 -0.025229279 -0.0055316095
-0.03037994 0.008924666 0.00063161197 -0.05293714 -0.010954913 -0.020256044 0.0456225 0.034056365
0.050642908 -0.01019585 0.061088793 0.015592056 0.04293954 -0.04166047 0.044153396 0.0057802866
0.015353186 -0.019360565 -0.019990265 -0.023030993 0.057635892 -0.038018044 -0.04223048 -0.038010634
-0.04025201 0.019183647 -0.03019437 -0.0033393265 0.0587651 -0.030822927 -0.029771348 0.08812543
0.011759174 -0.009385929 -0.07204876 -0.01270835 -0.046398044 0.021293603 -0.028455576 -0.067974456
-0.0446591 0.029630369 -0.07510379 -0.06331349 0.055228565 0.035509016 -0.0057883533 -0.021174747
0.06419166 -0.026124574 -0.018450998 0.04054689 0.04637809 -0.009675797 0.049739257 -0.062801264
-0.028570065 0.055332005 0.046389688 -0.077920906 -0.023688732 -0.059584584 -0.017355282 0.02263753
-0.06752832 0.050375927 0.0150271095 -0.0040173084 0.030778723 0.07988404 0.045557484 0.051510267
0.03947067 0.019013189 0.02192021 -0.0063580303 -0.010895814 0.0060644504 -0.02756559 -0.041289173
0.036783572 0.055338982 0.01868932 -0.0283501 -0.018414978 0.031339437 -0.020364793 -0.010117209
00000000: 4426 4cbd 0af0 3b3c ffd0 5a3c de6c 8dbc
00000010: bd8e 213c c977 13bd 7c8f 303c ba3f 7e3d
00000020: b2a0 083d 5b9b c9bc 9c20 44bd d10e 86bc
00000030: a2ee 893c 5442 6d3d 5a4f 1ebd d0d8 963c
00000040: 32ab 603d 2789 8f3b d200 7f3c 7e96 c5bc
00000050: d294 8dbc 5391 bbbc 1286 1abd df4c 1c3d
00000060: f441 22bd 7ed5 243d f13c e8bc 7ede b0bd
00000070: bef7 49bd 7041 19bd 5b65 40bd f857 20bd
00000080: b9c2 523b ba88 453d 2924 c03b 307a 643d
00000090: 523e ae3c 164e 4c3d a2ad cebc 8142 b5bb
000000a0: 5adf f8bc c338 123c c392 253a 9dd4 58bd
000000b0: 3c7c 33bc 01f0 a5bc a9de 3a3d b07e 0b3d
000000c0: f06e 4f3d 7f0c 27bc 3e38 7a3d d375 7f3c
000000d0: 5fe1 2f3d 2ba4 2abd 31da 343d 8f68 bd3b
000000e0: ee8b 7b3c 0c9a 9ebc a0c2 a3bc 7eab bcbc
000000f0: 9d13 6c3d cfb8 1bbd def9 2cbd 0ab1 1bbd
00000100: 4bdf 24bd 0627 9d3c 2f5a f7bc 9ad8 5abb
00000110: acb3 703d 5d80 fcbc 0be3 f3bc 1b7b b43d
00000120: 8da9 403c 71c7 19bc 4d8e 93bd af36 50bc
00000130: e00b 3ebd ec6f ae3c ab1b e9bc 3136 8bbd
00000140: 76ec 36bd 63bb f23c 04d0 99bd 81aa 81bd
00000150: 5937 623d e771 113d 3aac bdbb aa76 adbc
00000160: eb76 833d 3403 d6bc 8c26 97bc 7f14 263d
00000170: f4f6 3d3d 3c87 1ebc 64bb 4b3d f39d 80bd
00000180: c50b eabc d0a3 623d 1d03 3e3d ff94 9fbd
00000190: df0e c2bc f70e 74bd aa2c 8ebc 5772 b93c
000001a0: 4a4c 8abd fd56 4e3d 4434 763c a0a3 83bb
000001b0: a923 fc3c 3e9a a33d 7c9a 3a3d 6efc 523d
000001c0: ffab 213d 8cc1 9b3c 0392 b33c 0657 d0bb
000001d0: 5b84 32bc 4cb8 c63b 3bd1 e1bc d61e 29bd
000001e0: 5faa 163d 21ab 623d 581a 993c 783e e8bc
000001f0: 02db 96bc c85d 003d 11d4 a6bc a6c2 25bc

bn2.weight f4 [128]
1.3863813 1.4733912 1.2664917 1.5378163 1.3902086 1.5093579 1.3147353 1.4358743
1.3514816 1.5288098 1.5011368 1.4522794 1.3881955 1.3920679 1.4032807 1.4550276
1.283602 1.4201987 1.4421799 1.6073614 1.63966 1.6101815 1.4807746 1.5994846
1.413159 1.3857867 1.4745635 1.7389704 1.4991486 1.478807 1.436519 1.5585653
1.5996218 1.575513 1.5071762 1.5358282 1.4749764 1.5287564 1.2873293 1.5719384
1.5580684 1.583827 1.4600334 1.3515594 1.3538985 1.5781723 1.4344544 1.4883991
1.404091 1.4311453 1.4594148 1.3588238 1.5307405 1.5415014 1.3861508 1.5581046
1.3902503 1.383993 1.5091848 1.596683 1.372552 1.4642338 1.4510353 1.6471099
1.3714808 1.3993788 1.4532548 1.5907617 1.5573045 1.3910713 1.4922619 1.4513063
1.3880435 1.3725146 1.402313 1.4502275 1.4273025 1.5051525 1.4939103 1.664767
1.4255409 1.5742868 1.4674386 1.3587383 1.5863563 1.4158136 1.3346268 1.4794022
1.3783989 1.4499235 1.5766283 1.353032 1.4953789 1.5496703 1.4458482 1.4870813
1.3670624 1.3969803 1.4620973 1.367745 1.4668136 1.5880764 1.6723001 1.4385041
1.471326 1.6677161 1.3072728 1.4428988 1.384456 1.3602974 1.5145093 1.4094353
1.5359294 1.4806724 1.4733537 1.6501818 1.4344304 1.3164352 1.4680872 1.5522431
1.4319533 1.4533579 1.4390432 1.3506643 1.364012 1.4194268 1.3831607 1.4837234
00000000: f174 b13f 1598 bc3f 661c a23f 2ad7 c43f
00000010: 5bf2 b13f a432 c13f 3f49 a83f bbca b73f
00000020: 59fd ac3f 0ab0 c33f 4025 c03f 4be4 b93f
00000030: 64b0 b13f 482f b23f b49e b33f 583e ba3f
00000040: 124d a43f 12c9 b53f 5a99 b83f 05be cd3f
00000050: 61e0 d13f 6d1a ce3f 068a bd3f e9bb cc3f
00000060: 65e2 b43f 7561 b13f 7fbe bc3f 9596 de3f
00000070: 1ae4 bf3f 8c49 bd3f dbdf b73f 117f c73f
00000080: 68c0 cc3f 69aa c93f 26eb c03f 0596 c43f
00000090: 07cc bc3f 4aae c33f 35c7 a43f 4735 c93f
000000a0: c96e c73f d8ba ca3f 60e2 ba3f e6ff ac3f
000000b0: 8c4c ad3f 8d01 ca3f 349c b73f dd83 be3f
000000c0: 41b9 b33f c52f b73f 1bce ba3f f0ed ad3f
000000d0: 4eef c33f eb4f c53f 646d b13f f96f c73f
000000e0: b9f3 b13f af26 b13f f82c c13f 1c60 cc3f
000000f0: c9af af3f 036c bb3f 86bb b93f 7fd4 d23f
00000100: af8c af3f d81e b33f 4104 ba3f 149e cb3f
00000110: c155 c73f a00e b23f 7002 bf3f 68c4 b93f
00000120: 69ab b13f 8fae af3f fe7e b33f 0ea1 b93f
00000130: d9b1 b63f d6a8 c03f 7438 bf3f 1617 d53f
00000140: 2078 b63f 3b82 c93f 07d5 bb3f 23eb ad3f
00000150: b90d cb3f 6139 b53f 0dd5 aa3f 0d5d bd3f
00000160: 606f b03f 1897 b93f f5ce c93f 2730 ad3f
00000170: 9368 bf3f 995b c63f 8e11 b93f ae58 be3f
00000180: e7fb ae3f 40d0 b23f 0126 bb3f 4512 af3f
00000190: 8cc0 bb3f 1646 cb3f ee0d d63f e720 b83f
000001a0: 6954 bc3f b977 d53f b754 a73f e8b0 b83f
000001b0: db35 b13f 3a1e ae3f 71db c13f 6068 b43f
000001c0: 5699 c43f ac86 bd3f db96 bc3f 2839 d33f
000001d0: 6a9b b73f f380 a83f 48ea bb3f e7af c63f
000001e0: 3f4a b73f a207 ba3f 9132 b83f 91e2 ac3f
000001f0: f297 ae3f c7af b53f 690b b13f a6ea bd3f
